name: "stage_one_x2"
input: "data"
input_dim: 1
input_dim: 1
input_dim: 11
input_dim: 11

input: "label"
input_dim: 1
input_dim: 1
input_dim: 22
input_dim: 22

layer {
    name: "conv1"
    type: "Convolution"
    bottom: "data"
    top: "conv1"
    param {
        lr_mult: 1.0
    }
    param {
        lr_mult: 0.1
    }
    convolution_param {
        num_output: 64
        kernel_size: 3
        stride: 1
        pad: 1
        weight_filler {
            type: "msra"
            variance_norm: 2
        }
        bias_filler {
            type: "constant"
            value: 0
        }
    }
}
layer {
    name: "relu1"
    type: "ReLU"
    bottom: "conv1"
    top: "conv1"
    relu_param {
        negative_slope: 0.05
    }
}
layer {
    name: "conv2"
    type: "Convolution"
    bottom: "conv1"
    top: "conv2"
    param {
        lr_mult: 1.0
    }
    param {
        lr_mult: 0.1
    }
    convolution_param {
        num_output: 64
        kernel_size: 3
        stride: 1
        pad: 1
        weight_filler {
            type: "msra"
            variance_norm: 2
        }
        bias_filler {
            type: "constant"
            value: 0
        }
    }
}
layer {
    name: "relu2"
    type: "ReLU"
    bottom: "conv2"
    top: "conv2"
    relu_param {
        negative_slope: 0.05
    }
}
layer {
    name: "conv3_1"
    type: "Convolution"
    bottom: "conv2"
    top: "conv3_1"
    param {
        lr_mult: 1.0
    }
    param {
        lr_mult: 0.1
    }
    convolution_param {
        num_output: 48
        kernel_size: 3
        stride: 1
        pad: 1
        weight_filler {
            type: "msra"
            variance_norm: 2
        }
        bias_filler {
            type: "constant"
            value: 0
        }
    }
}
layer {
    name: "relu3_1"
    type: "ReLU"
    bottom: "conv3_1"
    top: "conv3_1"
    relu_param {
        negative_slope: 0.05
    }
}
layer {
    name: "conv3_2"
    type: "Convolution"
    bottom: "conv3_1"
    top: "conv3_2"
    param {
        lr_mult: 1.0
    }
    param {
        lr_mult: 0.1
    }
    convolution_param {
        num_output: 48
        kernel_size: 3
        stride: 1
        pad: 1
        group: 4
        weight_filler {
            type: "msra"
            variance_norm: 2
        }
        bias_filler {
            type: "constant"
            value: 0
        }
    }
}
layer {
    name: "relu3_2"
    type: "ReLU"
    bottom: "conv3_2"
    top: "conv3_2"
    relu_param {
        negative_slope: 0.05
    }
}
layer {
    name: "conv3_3"
    type: "Convolution"
    bottom: "conv3_2"
    top: "conv3_3"
    param {
        lr_mult: 1.0
    }
    param {
        lr_mult: 0.1
    }
    convolution_param {
        num_output: 64
        kernel_size: 3
        stride: 1
        pad: 1
        weight_filler {
            type: "msra"
            variance_norm: 2
        }
        bias_filler {
            type: "constant"
            value: 0
        }
    }
}
layer {
    name: "relu3_3"
    type: "ReLU"
    bottom: "conv3_3"
    top: "conv3_3"
    relu_param {
        negative_slope: 0.05
    }
}
layer {
    name: "conv3_4"
    type: "Convolution"
    bottom: "conv3_3"
    top: "conv3_4"
    param {
        lr_mult: 1.0
    }
    param {
        lr_mult: 0.1
    }
    convolution_param {
        num_output: 48
        kernel_size: 3
        stride: 1
        pad: 1
        weight_filler {
            type: "msra"
            variance_norm: 2
        }
        bias_filler {
            type: "constant"
            value: 0
        }
    }
}
layer {
    name: "relu3_4"
    type: "ReLU"
    bottom: "conv3_4"
    top: "conv3_4"
    relu_param {
        negative_slope: 0.05
    }
}
layer {
    name: "conv3_5"
    type: "Convolution"
    bottom: "conv3_4"
    top: "conv3_5"
    param {
        lr_mult: 1.0
    }
    param {
        lr_mult: 0.1
    }
    convolution_param {
        num_output: 48
        kernel_size: 3
        stride: 1
        pad: 1
        group: 4
        weight_filler {
            type: "msra"
            variance_norm: 2
        }
        bias_filler {
            type: "constant"
            value: 0
        }
    }
}
layer {
    name: "relu3_5"
    type: "ReLU"
    bottom: "conv3_5"
    top: "conv3_5"
    relu_param {
        negative_slope: 0.05
    }
}
layer {
    name: "conv3_6"
    type: "Convolution"
    bottom: "conv3_5"
    top: "conv3_6"
    param {
        lr_mult: 1.0
    }
    param {
        lr_mult: 0.1
    }
    convolution_param {
        num_output: 64
        kernel_size: 3
        stride: 1
        pad: 1
        weight_filler {
            type: "msra"
            variance_norm: 2
        }
        bias_filler {
            type: "constant"
            value: 0
        }
    }
}
layer {
    name: "relu3_6"
    type: "ReLU"
    bottom: "conv3_6"
    top: "conv3_6"
    relu_param {
        negative_slope: 0.05
    }
}
layer {
    name: "concat1"
    type: "Concat"
    bottom: "conv2"
    bottom: "conv3_3"
    bottom: "conv3_6"
    top: "concat1"
    concat_param {
        axis: 1
    }
}
layer {
    name: "fusion1"
    type: "Convolution"
    bottom: "concat1"
    top: "fusion1"
    param {
        lr_mult: 1.0
    }
    param {
        lr_mult: 0.1
    }
    convolution_param {
        num_output: 64
        kernel_size: 1
        stride: 1
        pad: 0
        weight_filler {
            type: "msra"
            variance_norm: 2
        }
        bias_filler {
            type: "constant"
            value: 0
        }
    }
}
layer {
    name: "relu_fusion1"
    type: "ReLU"
    bottom: "fusion1"
    top: "fusion1"
    relu_param {
        negative_slope: 0.05
    }
}
layer {
    name: "conv4_1"
    type: "Convolution"
    bottom: "fusion1"
    top: "conv4_1"
    param {
        lr_mult: 1.0
    }
    param {
        lr_mult: 0.1
    }
    convolution_param {
        num_output: 48
        kernel_size: 3
        stride: 1
        pad: 1
        weight_filler {
            type: "msra"
            variance_norm: 2
        }
        bias_filler {
            type: "constant"
            value: 0
        }
    }
}
layer {
    name: "relu4_1"
    type: "ReLU"
    bottom: "conv4_1"
    top: "conv4_1"
    relu_param {
        negative_slope: 0.05
    }
}
layer {
    name: "conv4_2"
    type: "Convolution"
    bottom: "conv4_1"
    top: "conv4_2"
    param {
        lr_mult: 1.0
    }
    param {
        lr_mult: 0.1
    }
    convolution_param {
        num_output: 48
        kernel_size: 3
        stride: 1
        pad: 1
        group: 4
        weight_filler {
            type: "msra"
            variance_norm: 2
        }
        bias_filler {
            type: "constant"
            value: 0
        }
    }
}
layer {
    name: "relu4_2"
    type: "ReLU"
    bottom: "conv4_2"
    top: "conv4_2"
    relu_param {
        negative_slope: 0.05
    }
}
layer {
    name: "conv4_3"
    type: "Convolution"
    bottom: "conv4_2"
    top: "conv4_3"
    param {
        lr_mult: 1.0
    }
    param {
        lr_mult: 0.1
    }
    convolution_param {
        num_output: 64
        kernel_size: 3
        stride: 1
        pad: 1
        weight_filler {
            type: "msra"
            variance_norm: 2
        }
        bias_filler {
            type: "constant"
            value: 0
        }
    }
}
layer {
    name: "relu4_3"
    type: "ReLU"
    bottom: "conv4_3"
    top: "conv4_3"
    relu_param {
        negative_slope: 0.05
    }
}
layer {
    name: "conv4_4"
    type: "Convolution"
    bottom: "conv4_3"
    top: "conv4_4"
    param {
        lr_mult: 1.0
    }
    param {
        lr_mult: 0.1
    }
    convolution_param {
        num_output: 48
        kernel_size: 3
        stride: 1
        pad: 1
        weight_filler {
            type: "msra"
            variance_norm: 2
        }
        bias_filler {
            type: "constant"
            value: 0
        }
    }
}
layer {
    name: "relu4_4"
    type: "ReLU"
    bottom: "conv4_4"
    top: "conv4_4"
    relu_param {
        negative_slope: 0.05
    }
}
layer {
    name: "conv4_5"
    type: "Convolution"
    bottom: "conv4_4"
    top: "conv4_5"
    param {
        lr_mult: 1.0
    }
    param {
        lr_mult: 0.1
    }
    convolution_param {
        num_output: 48
        kernel_size: 3
        stride: 1
        pad: 1
        group: 4
        weight_filler {
            type: "msra"
            variance_norm: 2
        }
        bias_filler {
            type: "constant"
            value: 0
        }
    }
}
layer {
    name: "relu4_5"
    type: "ReLU"
    bottom: "conv4_5"
    top: "conv4_5"
    relu_param {
        negative_slope: 0.05
    }
}
layer {
    name: "conv4_6"
    type: "Convolution"
    bottom: "conv4_5"
    top: "conv4_6"
    param {
        lr_mult: 1.0
    }
    param {
        lr_mult: 0.1
    }
    convolution_param {
        num_output: 64
        kernel_size: 3
        stride: 1
        pad: 1
        weight_filler {
            type: "msra"
            variance_norm: 2
        }
        bias_filler {
            type: "constant"
            value: 0
        }
    }
}
layer {
    name: "relu4_6"
    type: "ReLU"
    bottom: "conv4_6"
    top: "conv4_6"
    relu_param {
        negative_slope: 0.05
    }
}
layer {
    name: "concat2"
    type: "Concat"
    bottom: "fusion1"
    bottom: "conv4_3"
    bottom: "conv4_6"
    top: "concat2"
    concat_param {
        axis: 1
    }
}
layer {
    name: "fusion2"
    type: "Convolution"
    bottom: "concat2"
    top: "fusion2"
    param {
        lr_mult: 1.0
    }
    param {
        lr_mult: 0.1
    }
    convolution_param {
        num_output: 64
        kernel_size: 1
        stride: 1
        pad: 0
        weight_filler {
            type: "msra"
            variance_norm: 2
        }
        bias_filler {
            type: "constant"
            value: 0
        }
    }
}
layer {
    name: "relu_fusion2"
    type: "ReLU"
    bottom: "fusion2"
    top: "fusion2"
    relu_param {
        negative_slope: 0.05
    }
}
layer {
    name: "conv5_1"
    type: "Convolution"
    bottom: "fusion2"
    top: "conv5_1"
    param {
        lr_mult: 1.0
    }
    param {
        lr_mult: 0.1
    }
    convolution_param {
        num_output: 48
        kernel_size: 3
        stride: 1
        pad: 1
        weight_filler {
            type: "msra"
            variance_norm: 2
        }
        bias_filler {
            type: "constant"
            value: 0
        }
    }
}
layer {
    name: "relu5_1"
    type: "ReLU"
    bottom: "conv5_1"
    top: "conv5_1"
    relu_param {
        negative_slope: 0.05
    }
}
layer {
    name: "conv5_2"
    type: "Convolution"
    bottom: "conv5_1"
    top: "conv5_2"
    param {
        lr_mult: 1.0
    }
    param {
        lr_mult: 0.1
    }
    convolution_param {
        num_output: 48
        kernel_size: 3
        stride: 1
        pad: 1
        group: 4
        weight_filler {
            type: "msra"
            variance_norm: 2
        }
        bias_filler {
            type: "constant"
            value: 0
        }
    }
}
layer {
    name: "relu5_2"
    type: "ReLU"
    bottom: "conv5_2"
    top: "conv5_2"
    relu_param {
        negative_slope: 0.05
    }
}
layer {
    name: "conv5_3"
    type: "Convolution"
    bottom: "conv5_2"
    top: "conv5_3"
    param {
        lr_mult: 1.0
    }
    param {
        lr_mult: 0.1
    }
    convolution_param {
        num_output: 64
        kernel_size: 3
        stride: 1
        pad: 1
        weight_filler {
            type: "msra"
            variance_norm: 2
        }
        bias_filler {
            type: "constant"
            value: 0
        }
    }
}
layer {
    name: "relu5_3"
    type: "ReLU"
    bottom: "conv5_3"
    top: "conv5_3"
    relu_param {
        negative_slope: 0.05
    }
}
layer {
    name: "conv5_4"
    type: "Convolution"
    bottom: "conv5_3"
    top: "conv5_4"
    param {
        lr_mult: 1.0
    }
    param {
        lr_mult: 0.1
    }
    convolution_param {
        num_output: 48
        kernel_size: 3
        stride: 1
        pad: 1
        weight_filler {
            type: "msra"
            variance_norm: 2
        }
        bias_filler {
            type: "constant"
            value: 0
        }
    }
}
layer {
    name: "relu5_4"
    type: "ReLU"
    bottom: "conv5_4"
    top: "conv5_4"
    relu_param {
        negative_slope: 0.05
    }
}
layer {
    name: "conv5_5"
    type: "Convolution"
    bottom: "conv5_4"
    top: "conv5_5"
    param {
        lr_mult: 1.0
    }
    param {
        lr_mult: 0.1
    }
    convolution_param {
        num_output: 48
        kernel_size: 3
        stride: 1
        pad: 1
        group: 4
        weight_filler {
            type: "msra"
            variance_norm: 2
        }
        bias_filler {
            type: "constant"
            value: 0
        }
    }
}
layer {
    name: "relu5_5"
    type: "ReLU"
    bottom: "conv5_5"
    top: "conv5_5"
    relu_param {
        negative_slope: 0.05
    }
}
layer {
    name: "conv5_6"
    type: "Convolution"
    bottom: "conv5_5"
    top: "conv5_6"
    param {
        lr_mult: 1.0
    }
    param {
        lr_mult: 0.1
    }
    convolution_param {
        num_output: 64
        kernel_size: 3
        stride: 1
        pad: 1
        weight_filler {
            type: "msra"
            variance_norm: 2
        }
        bias_filler {
            type: "constant"
            value: 0
        }
    }
}
layer {
    name: "relu5_6"
    type: "ReLU"
    bottom: "conv5_6"
    top: "conv5_6"
    relu_param {
        negative_slope: 0.05
    }
}
layer {
    name: "concat3"
    type: "Concat"
    bottom: "fusion2"
    bottom: "conv5_3"
    bottom: "conv5_6"
    top: "concat3"
    concat_param {
        axis: 1
    }
}
layer {
    name: "fusion3"
    type: "Convolution"
    bottom: "concat3"
    top: "fusion3"
    param {
        lr_mult: 1.0
    }
    param {
        lr_mult: 0.1
    }
    convolution_param {
        num_output: 64
        kernel_size: 1
        stride: 1
        pad: 0
        weight_filler {
            type: "msra"
            variance_norm: 2
        }
        bias_filler {
            type: "constant"
            value: 0
        }
    }
}
layer {
    name: "relu_fusion3"
    type: "ReLU"
    bottom: "fusion3"
    top: "fusion3"
    relu_param {
        negative_slope: 0.05
    }
}
layer {
    name: "conv6_1"
    type: "Convolution"
    bottom: "fusion3"
    top: "conv6_1"
    param {
        lr_mult: 1.0
    }
    param {
        lr_mult: 0.1
    }
    convolution_param {
        num_output: 48
        kernel_size: 3
        stride: 1
        pad: 1
        weight_filler {
            type: "msra"
            variance_norm: 2
        }
        bias_filler {
            type: "constant"
            value: 0
        }
    }
}
layer {
    name: "relu6_1"
    type: "ReLU"
    bottom: "conv6_1"
    top: "conv6_1"
    relu_param {
        negative_slope: 0.05
    }
}
layer {
    name: "conv6_2"
    type: "Convolution"
    bottom: "conv6_1"
    top: "conv6_2"
    param {
        lr_mult: 1.0
    }
    param {
        lr_mult: 0.1
    }
    convolution_param {
        num_output: 48
        kernel_size: 3
        stride: 1
        pad: 1
        group: 4
        weight_filler {
            type: "msra"
            variance_norm: 2
        }
        bias_filler {
            type: "constant"
            value: 0
        }
    }
}
layer {
    name: "relu6_2"
    type: "ReLU"
    bottom: "conv6_2"
    top: "conv6_2"
    relu_param {
        negative_slope: 0.05
    }
}
layer {
    name: "conv6_3"
    type: "Convolution"
    bottom: "conv6_2"
    top: "conv6_3"
    param {
        lr_mult: 1.0
    }
    param {
        lr_mult: 0.1
    }
    convolution_param {
        num_output: 64
        kernel_size: 3
        stride: 1
        pad: 1
        weight_filler {
            type: "msra"
            variance_norm: 2
        }
        bias_filler {
            type: "constant"
            value: 0
        }
    }
}
layer {
    name: "relu6_3"
    type: "ReLU"
    bottom: "conv6_3"
    top: "conv6_3"
    relu_param {
        negative_slope: 0.05
    }
}
layer {
    name: "conv6_4"
    type: "Convolution"
    bottom: "conv6_3"
    top: "conv6_4"
    param {
        lr_mult: 1.0
    }
    param {
        lr_mult: 0.1
    }
    convolution_param {
        num_output: 48
        kernel_size: 3
        stride: 1
        pad: 1
        weight_filler {
            type: "msra"
            variance_norm: 2
        }
        bias_filler {
            type: "constant"
            value: 0
        }
    }
}
layer {
    name: "relu6_4"
    type: "ReLU"
    bottom: "conv6_4"
    top: "conv6_4"
    relu_param {
        negative_slope: 0.05
    }
}
layer {
    name: "conv6_5"
    type: "Convolution"
    bottom: "conv6_4"
    top: "conv6_5"
    param {
        lr_mult: 1.0
    }
    param {
        lr_mult: 0.1
    }
    convolution_param {
        num_output: 48
        kernel_size: 3
        stride: 1
        pad: 1
        group: 4
        weight_filler {
            type: "msra"
            variance_norm: 2
        }
        bias_filler {
            type: "constant"
            value: 0
        }
    }
}
layer {
    name: "relu6_5"
    type: "ReLU"
    bottom: "conv6_5"
    top: "conv6_5"
    relu_param {
        negative_slope: 0.05
    }
}
layer {
    name: "conv6_6"
    type: "Convolution"
    bottom: "conv6_5"
    top: "conv6_6"
    param {
        lr_mult: 1.0
    }
    param {
        lr_mult: 0.1
    }
    convolution_param {
        num_output: 64
        kernel_size: 3
        stride: 1
        pad: 1
        group: 1
        weight_filler {
            type: "msra"
            variance_norm: 2
        }
        bias_filler {
            type: "constant"
            value: 0
        }
    }
}
layer {
    name: "relu6_6"
    type: "ReLU"
    bottom: "conv6_6"
    top: "conv6_6"
    relu_param {
        negative_slope: 0.05
    }
}
layer {
    name: "concat4"
    type: "Concat"
    bottom: "fusion3"
    bottom: "conv6_3"
    bottom: "conv6_6"
    top: "concat4"
    concat_param {
        axis: 1
    }
}
layer {
    name: "fusion4"
    type: "Convolution"
    bottom: "concat4"
    top: "fusion4"
    param {
        lr_mult: 1.0
    }
    param {
        lr_mult: 0.1
    }
    convolution_param {
        num_output: 64
        kernel_size: 1
        stride: 1
        pad: 0
        weight_filler {
            type: "msra"
            variance_norm: 2
        }
        bias_filler {
            type: "constant"
            value: 0
        }
    }
}
layer {
    name: "relu_fusion4"
    type: "ReLU"
    bottom: "fusion4"
    top: "fusion4"
    relu_param {
        negative_slope: 0.05
    }
}
layer {
    name: "concat"
    bottom: "conv2"
    bottom: "fusion1"
    bottom: "fusion2"
    bottom: "fusion3"
    bottom: "fusion4"
    top: "concat"
    type: "Concat"
    concat_param {
        axis: 1
    }
}
layer {
    name: "conv7"
    type: "Convolution"
    bottom: "concat"
    top: "conv7"
    param {
        lr_mult: 1.0
    }
    param {
        lr_mult: 0.1
    }
    convolution_param {
        num_output: 64
        kernel_size: 1
        stride: 1
        pad: 0
        weight_filler {
            type: "msra"
            variance_norm: 2
        }
        bias_filler {
            type: "constant"
            value: 0
        }
    }
}
layer {
    name: "relu7"
    type: "ReLU"
    bottom: "conv7"
    top: "conv7"
    relu_param {
        negative_slope: 0.05
    }
}
layer {
    name: "upsample"
    type: "Deconvolution"
    bottom: "conv7"
    top: "upsample"
    param {
        lr_mult: 0.1
    }
    param {
        lr_mult: 0.1
    }
    convolution_param {
        kernel_size: 4
        stride: 2
        num_output: 64
        pad: 1
        weight_filler {
            type: "msra"
            variance_norm: 2
        }
        bias_filler {
            type: "constant"
            value: 0
        }
    }
}
layer {
    name: "relu_up"
    type: "ReLU"
    bottom: "upsample"
    top: "upsample"
    relu_param {
        negative_slope: 0.05
    }
}
layer {
    name: "conv8"
    type: "Convolution"
    bottom: "upsample"
    top: "conv8"
    param {
        lr_mult: 1.0
    }
    param {
        lr_mult: 0.1
    }
    convolution_param {
        num_output: 1
        kernel_size: 3
        stride: 1
        pad: 1
        weight_filler {
            type: "msra"
            variance_norm: 2
        }
        bias_filler {
            type: "constant"
            value: 0
        }
    }
}